Asmt 2 (MNIST)/saved_model.pth (torch, 831301 bytes, 8 tensors)

conv1.weight f4 [16, 1, 3, 3]
000000 18 23 5d bd e9 e8 14 bf a1 d2 eb be 3a 8f a1 3d
       -0.053988546 -0.5816789 -0.46059135 0.078886464
000010 82 ac 3e bc fd dd 63 be 72 1a df 3e 95 b7 de 3e
       -0.011637809 -0.2225265 0.43574864 0.43499437
000020 50 df fe 3e be fc 99 3e 63 58 04 3f c9 d0 8c 3c
       0.4977975 0.3007564 0.5169737 0.0171894
000030 68 7a fe 3d 57 7f 4e 3e 77 52 05 3c 4e af bb 3e
       0.12425691 0.20165764 0.008137337 0.36657184
000040 f2 4a a0 3e 47 8c fe be 59 4c ab 3e 50 a0 47 bd
       0.3130718 -0.49716398 0.33456686 -0.04873687
000050 6a 81 b1 3e 78 26 7f 3e ad 4e 23 be 20 82 d6 3d
       0.34669048 0.24917018 -0.15947981 0.10474038
000060 dc b7 35 be 96 c7 81 3e 04 ad c7 3e 33 8f 94 be
       -0.17745918 0.25347584 0.38999188 -0.29015502
000070 ad 9a bb be 3e 93 ff 3d 3b 2e 87 3d 16 ec 65 be
       -0.36641446 0.12479256 0.06600615 -0.22453341
000080 88 7b 9e be fb fd 6c be ef 02 af bc a2 82 c0 be
       -0.30953622 -0.23143761 -0.021363704 -0.37599665
000090 e8 a5 d9 be ca c9 14 bf 29 8e fe 3d 9b bf b8 be
       -0.4250939 -0.58120406 0.12429459 -0.36083683
0000a0 f6 92 e2 3d 83 ff 47 bc 19 f6 2c 3d 4d 52 0d 3f
       0.11063187 -0.012206915 0.042226885 0.55203706
0000b0 a9 69 ab 3e b2 e9 8b bc e8 09 72 3e d7 da bb 3e
       0.3347905 -0.017079208 0.23636591 0.366904
0000c0 c8 6d 1c bf 3a d1 6c 3e 70 d9 43 3e c5 9a e8 be
       -0.6110501 0.23126689 0.19125915 -0.4543058
0000d0 12 a9 5c bf d7 bf bb be 53 cf a6 3d 75 02 8a 3e
       -0.8619548 -0.366698 0.08145013 0.26955
0000e0 99 b0 16 3e a5 1c b0 3d db 24 5d bc 0b ab 43 bd
       0.14715804 0.085992135 -0.013497557 -0.04777054
0000f0 87 77 1c 3e 41 89 d1 3e b0 4c 07 3e 5a b9 cc 3e
       0.15279971 0.4092503 0.13212848 0.39985162
000100 81 38 d2 3e fd e6 64 3e b7 a1 41 be 55 4c 4d 3e
       0.41058734 0.2235374 -0.18909346 0.2004865
000110 06 91 de 3e bd 18 23 bf 6a af 7f 3d 7c bd d2 3d
       0.4347002 -0.6370962 0.062423147 0.102900475
000120 fa e7 a2 3d f3 62 11 be c9 7a 72 be 35 97 a4 3e
       0.07954402 -0.14197902 -0.23679651 0.32146612
000130 6e 88 88 3e e6 d4 74 3e 0e 48 ce bd 96 3a 11 be
       0.26666588 0.2390934 -0.10072337 -0.14182505
000140 37 94 2d 3e 13 76 a8 3e 96 cf 89 3e 78 75 b7 3d
       0.1695107 0.32902583 0.26916188 0.08957952
000150 55 5d b9 3e 9e 4b 22 bd 61 c5 05 bf 3f 10 d8 be
       0.3620402 -0.039622895 -0.522543 -0.42199895
000160 17 72 34 bf 9c 6d 87 bc 1a 86 de be 1b c4 55 3d
       -0.7048659 -0.016531758 -0.43461686 0.052188974
000170 76 22 a2 3e 55 9e dc be 32 fb 22 bb b1 57 b2 3e
       0.31666917 -0.43089548 -0.0024868962 0.34832528
000180 ee 6a 6a be 48 b4 ca 3e d9 d0 90 3e 69 67 af 3e
       -0.22892353 0.3959067 0.28284338 0.34258583
000190 d3 de c7 3e de d1 fe 3e 13 9f 91 bd 5c a3 e5 bc
       0.3903719 0.4976949 -0.07110419 -0.028031997
0001a0 4c 1c 87 bd 2b 17 eb be 0c 5e 02 bf 79 87 e2 bd
       -0.06597194 -0.45916113 -0.50924754 -0.110609956
0001b0 b6 5d f2 3d 1b 55 c7 bc 6a e8 3d 3e da 5e 2f be
       0.1183428 -0.024332574 0.1854569 -0.17126027
0001c0 e8 7c c7 3e 6b 71 5a 3e 11 f1 bd 3e 80 98 5d 3d
       0.38962483 0.21332328 0.37097982 0.054100513
0001d0 13 ad ab 3e 00 c4 b1 3d 66 4c 72 be 78 c8 57 3d
       0.33530483 0.08679962 -0.23661956 0.052681416
0001e0 74 b4 91 3d f6 3d bf bd 56 15 57 be f6 bc 88 be
       0.07114497 -0.0933799 -0.21004233 -0.26706666
0001f0 fc 01 a8 bd b3 71 67 be ac 89 a5 3e 6b 2b 07 3e
       -0.082035035 -0.22601967 0.32331598 0.13200156
000200 29 90 fc bb c0 65 08 3e e3 32 ee 3e 7d cf 1e 3d
       -0.007707615 0.13320065 0.46523198 0.038772095
000210 71 22 1e 3e b4 2f b8 3e 34 7c 82 3e c5 8f da 3e
       0.15442826 0.35973895 0.25485384 0.42687812
000220 31 8f fa bd d3 4c 82 be 09 54 a6 3d 58 02 0a 3f
       -0.12234343 -0.25449237 0.08121497 0.53909826
000230 cb 59 c1 3e 74 5e a8 be 40 b9 04 be 10 0c 57 3d
       0.3776382 -0.32884562 -0.12961292 0.052501738

conv1.bias f4 [16]
000000 f1 8d 79 3d 5b 0e 7a bd 61 7d 85 3d 3a 62 b2 3e
       0.06092638 -0.061048847 0.06518055 0.34840566
000010 90 1f 4b 3e 73 02 0d 3e 7a 12 a6 3d 41 72 10 be
       0.19836259 0.13770466 0.08108993 -0.14106084
000020 89 6f 49 be 27 d6 a7 3e 05 fd a9 bc f9 d0 af b9
       -0.19671454 0.32780573 -0.020750532 -0.00033534298
000030 ea 3b 9f bd c3 ce 95 be a9 88 0d bd 61 f5 a5 bb
       -0.077750996 -0.2925931 -0.034554157 -0.005064652

conv2.weight f4 [32, 16, 3, 3]
000000 62 2e c5 3d 5a bc b1 3d df 2c 35 bd fa 6e 05 3d
       0.096279874 0.08678503 -0.044232246 0.03257654
000010 21 c0 d1 3d 8a 22 9d 3d 67 50 9b bd 41 e6 7e 3d
       0.10241724 0.076726034 -0.07583695 0.062231306
000020 91 63 90 3e bd 04 02 3d 3b 1f 2e 3c ba 59 e4 3c
       0.28200963 0.0317428 0.010627563 0.027874816
000030 eb e6 6f bc 9e ea df 3c 69 13 4f bd 1f c3 38 be
       -0.0146424575 0.027333554 -0.05055562 -0.18043183
000040 ba f3 5e bb 78 86 b5 bc a7 6a a0 3d ba a9 c9 3c
       -0.0034019784 -0.022158846 0.07832842 0.024617065
000050 80 56 3e 3b c3 0a f8 3c 22 11 5f 3d b5 e8 ca 3c
       0.0029043257 0.03027857 0.0544597 0.024769166
000060 54 70 8d bd 9f ae 68 3d 16 3b 3c 3d d6 a9 19 bd
       -0.069061905 0.056807157 0.045954786 -0.037515484
000070 e1 ef b5 bd 5d 49 b4 bd 7a 3c 9b bd 4b d9 a4 bd
       -0.08883644 -0.088030554 -0.07579894 -0.08049258
000080 de 00 c1 3b 84 06 14 3d de d9 e2 bd e5 3c 40 bd
       0.005889996 0.036139026 -0.11076711 -0.046933074
000090 aa cc f8 bd b7 b9 4b bd e5 de 48 3d 20 5b 99 bd
       -0.121484116 -0.04973766 0.049040694 -0.07488084
0000a0 af 7d 98 3c ce ad 9b bd bf 7f 94 bd bb de c3 bd
       0.018614618 -0.0760151 -0.07250928 -0.09563967
0000b0 ab 38 fc 3c e0 e6 03 bc d4 d2 0e be a8 e7 33 be
       0.03078874 -0.00805065 -0.13947612 -0.17568839
0000c0 ae 2b e1 bc 97 9a 50 be aa ff 3c be 29 6c d3 3c
       -0.027486648 -0.20371471 -0.18456903 0.02580841
0000d0 a7 4e 29 3d 73 fc d9 3d 78 a5 26 3d 72 15 32 3d
       0.041334774 0.10643854 0.040685147 0.043477483
0000e0 07 ec 90 3c 1c 5f 57 3b 59 ad c1 3b e0 22 24 bb
       0.017690672 0.0032863086 0.005910557 -0.0025045201
0000f0 a7 51 e7 bc 02 d9 b7 bb dd e8 04 3b 80 37 2e 3d
       -0.028237177 -0.005610586 0.00202804 0.042533398
000100 45 02 0a 3d 17 be 08 be a6 dc 23 3e b7 07 eb 3d
       0.03369357 -0.13353764 0.1600214 0.11476081
000110 f7 7a de bd a0 87 cd 3b 10 8f 3b 3e 3b 98 8a bb
       -0.108632974 0.0062722713 0.18316293 -0.004229573
000120 e0 0c 20 3e b5 94 71 bd 90 23 43 be 58 69 38 3e
       0.15629911 -0.05897971 -0.19056535 0.18008935
000130 42 1b 0e 3d fb a3 43 be 6a d3 eb bd 22 17 47 3e
       0.034693964 -0.19105522 -0.115149334 0.19442418
000140 e2 db 4b 3e 38 e8 bf bd f8 f2 ba bd 94 00 2a 3d
       0.19908097 -0.09370464 -0.09128374 0.041504458
000150 d4 47 ca bd 4e 65 5d be a5 c2 04 bd 0e b3 b8 bc
       -0.098769814 -0.21620676 -0.03241219 -0.022546317
000160 cc c1 18 be 42 9f ed bd 8a 08 97 bd 21 ce d4 3d
       -0.14917678 -0.11602642 -0.073746756 0.103908785
000170 0d 97 2e 3d 7a 57 e0 3d 7c 68 c7 3d a7 5f 20 bb
       0.042624522 0.10954185 0.09736726 -0.0024471076
000180 46 36 33 3d 6f ed cf 3d fb d1 ba bd 41 b7 e3 bc
       0.04375293 0.10152709 -0.09122082 -0.027797343
000190 fa c6 f3 bc 2c d7 e8 3d d6 67 a1 3e a6 68 e1 bd
       -0.029757965 0.11369166 0.31524533 -0.11006288
0001a0 25 8f 4b be 67 9c 8a 3d 7a 42 0e 3d 9a ac a2 bc
       -0.19878824 0.06768113 0.034731366 -0.019857693
0001b0 6f 1a 77 bd 5c e7 93 3c 0e 37 ae bd 65 83 64 bd
       -0.060327943 0.018054657 -0.085065946 -0.05578937
0001c0 30 f6 f5 bb 0a 26 16 be 26 32 20 be 5c 1e 50 3c
       -0.0075061545 -0.14662948 -0.1564413 0.012702551
0001d0 a0 66 55 bd 86 2c 54 bd 2a 17 21 3d 5d 5f a1 3d
       -0.052099824 -0.051800273 0.03932873 0.07879517
0001e0 16 b0 4b 3d 50 89 fa 3c 00 bf 5c bd 00 63 b1 bb
       0.049728476 0.030583054 -0.05389309 -0.005413413
0001f0 4e 52 04 bd 9b 4f 9f 3d 4b ee aa 3d c9 fa 51 bc
       -0.032305054 0.077788554 0.08346232 -0.0128161395
000200 e2 97 d3 bd 3f d9 9c bd 66 e9 c5 bb 0f 5d 51 bd
       -0.10331704 -0.07658624 -0.006039786 -0.05111414
000210 23 43 e4 bd fd d7 f9 3d f3 82 61 3d f5 10 d4 3d
       -0.11145618 0.121993996 0.055056524 0.10354797
000220 30 cb 2e 39 e6 58 63 bc 2f 7d 1d bd 95 37 4f 3d
       0.00016669626 -0.0138761755 -0.038449463 0.050590117
000230 03 78 62 bd 56 bb d7 bd 25 49 56 3c 7e 78 c2 3c
       -0.055290233 -0.10533778 0.013078962 0.023739096
000240 58 d4 1a 3e 89 16 d9 3d 60 4e 66 bc d4 48 cc 3d
       0.15120065 0.10600001 -0.014056772 0.09974828
000250 59 c4 70 3e ca 1d 89 3d 36 76 bc bc 1e 4d 30 3d
       0.235124 0.06695135 -0.023005586 0.043042295
000260 02 f0 8f 3d 4f 8b 8a bd 61 ef 5f 3d b0 d3 fb bc
       0.070282 -0.06764852 0.05467165 -0.030740589
000270 15 47 84 3c 0b 6a 66 bc a7 b4 00 bd ad 76 b2 3c
       0.016147176 -0.014063369 -0.031422284 0.021785105
000280 45 e9 51 3d 1f cf 87 bd fd fe 42 3b c3 e2 0e bd
       0.051247854 -0.06631302 0.0029754036 -0.034884226
000290 10 b7 2c bd 71 61 16 bd 6c 8b 27 3d ae 12 8b bc
       -0.04216677 -0.03671402 0.040904447 -0.01697668
0002a0 3e 19 4f 3d e8 64 35 3d bc 8b 8b 3d c0 f2 cd bd
       0.050561182 0.044285685 0.068137616 -0.100560665
0002b0 19 62 d3 bd ae f1 9f bd 84 89 c0 bc c0 04 c2 bc
       -0.10321445 -0.078097686 -0.023503073 -0.023683906
0002c0 0b 28 c2 bd ec ca 76 bd 69 04 b7 bd a1 3d 07 be
       -0.09480294 -0.060252115 -0.08936388 -0.13207103
0002d0 d8 58 42 3d 99 0f 98 bb 03 69 73 3d 89 0e 98 bd
       0.04744801 -0.0046405313 0.05942632 -0.07424647
0002e0 d8 1c b4 3b 9b ee 83 3d 34 5c 4e bd 8d db 15 be
       0.0054966025 0.06441995 -0.0503809 -0.14634533
0002f0 7a 48 04 be 1e 8e 81 be 18 52 5e be 41 e9 14 be
       -0.12918273 -0.2530374 -0.21711004 -0.14542104
000300 77 e4 82 3d 3c 71 95 bd db d8 c1 bd f3 6e a7 bd
       0.063912325 -0.07296988 -0.0946519 -0.08175459
000310 9e 54 d8 bd 52 30 00 3c c8 65 19 39 7e 04 ce bd
       -0.105630144 0.00782402 0.00014629134 -0.100594506
000320 fc e9 f1 bb 9d f4 2a bd 92 40 3c bd 3c f4 6d bd
       -0.0073826294 -0.041737188 -0.045960017 -0.05809425
000330 97 43 8c 3c 63 d2 76 3d f1 6d a8 3c 6f 58 17 bc
       0.017122073 0.060259234 0.020560237 -0.009237393
000340 10 48 ab bd 4a d8 07 be 00 5c 28 3e 3a 7b 39 3d
       -0.08363354 -0.13266101 0.16441345 0.045283534
000350 c2 b1 1e 3c 07 95 96 3c 15 31 08 3e 38 0a bb 3d
       0.009685935 0.018381609 0.13299973 0.091328084
000360 47 1b 20 3e c4 8f 5e 3c 24 df 06 be b4 37 b1 3e
       0.15635405 0.013584081 -0.13171059 0.3461281
000370 91 c1 9b 3e 2b f4 4a 3c 45 35 0f 3d e1 ed 9a 3e
       0.30421117 0.012387316 0.03496291 0.30259612
000380 69 55 42 3e 7e ce 0a be a4 7d b3 3d ec 3f 4c 3d
       0.18977894 -0.13555333 0.087641984 0.04986565
000390 e4 7d 8b bd e0 86 12 be b8 40 7a bc 6e 57 1d bd
       -0.06811121 -0.14309263 -0.015274219 -0.038413458
0003a0 ce 4c e9 bd 24 79 0f bd 2d d5 36 bd 03 76 01 be
       -0.113916025 -0.035027638 -0.044636894 -0.12642674
0003b0 b4 c3 b4 3b 84 0f da bd 5c 4c 19 be b7 6d 8d bc
       0.0055164937 -0.106474906 -0.14970535 -0.01726423
0003c0 6d cb 40 be dc c7 29 be 31 0b 4b be dd e2 52 3d
       -0.18827601 -0.16580147 -0.19828488 0.051485885
0003d0 50 cb 84 3d a4 02 53 3e 94 3e 9b 3e bc ce db 3c
       0.06484091 0.20606476 0.3032118 0.026831977
0003e0 04 c6 fa bc a8 cf ac 3e 95 7b 9b 3e 70 92 b1 3e
       -0.030612 0.3375218 0.30367723 0.34682035
0003f0 6b 78 91 3d 1e 51 7a 3a 34 6b a8 bd 1b bb f6 39
       0.07103046 0.00095488306 -0.082235724 0.0004706018

conv2.bias f4 [32]
000000 73 21 93 bd 1c 88 9d bd 5b 12 cd bd 7f 35 ad bc
       -0.07184114 -0.076919764 -0.10013267 -0.021143673
000010 3e 46 ca bd a9 a0 83 3d 59 1d a7 bd af 01 a1 bc
       -0.09876679 0.06427128 -0.081598945 -0.019654123
000020 70 8c 10 be e4 27 67 bc 87 3e 93 bb 8f 83 ef bd
       -0.14116073 -0.014108632 -0.004493538 -0.11695015
000030 23 cc 1b bd 28 3c f1 3b 69 e2 90 bd d5 3e de bd
       -0.038036477 0.0073619075 -0.07074434 -0.10851828
000040 35 e4 0a bc 00 00 69 3d c4 b9 93 bc f2 ee 37 3d
       -0.00847726 0.056884766 -0.018032916 0.04490561
000050 fa fa dd 3c c6 b8 f2 ba 20 08 d1 bd 90 35 9d bc
       0.027097214 -0.0018518202 -0.10206628 -0.01919058
000060 66 b3 7f bc dc 86 8f 3b ef 2c 5a bd ba c4 06 be
       -0.015606737 0.00438009 -0.05326551 -0.13160983
000070 1a e8 e7 bb 7a fc 80 3d 77 f3 99 3b cc 16 ce bd
       -0.007077229 0.06298156 0.0046982127 -0.10062942

fc1.weight f4 [128, 1568]
000000 b8 43 f5 bc 18 6f 2a 3c 01 81 cf bc 0d 7e b4 bc
       -0.029939517 0.010402463 -0.025330069 -0.022032762
000010 be 10 6f bc 54 15 99 bc 06 bd 83 3c 71 7a 7a bc
       -0.014591394 -0.018686928 0.016081344 -0.015287981
000020 df 89 67 bc 9d f1 d2 bc 33 f4 8f bb 11 79 2e 3b
       -0.014131992 -0.025749976 -0.0043931245 0.0026622454
000030 fa d7 f3 bc a2 d2 99 3c 94 6f c4 bc a9 d7 39 3c
       -0.029766072 0.018777195 -0.023978986 0.011342921
000040 91 ea 56 3c 62 95 9c bc ae 34 27 3c 44 82 cb bc
       0.013117448 -0.0191142 0.010205431 -0.024842389
000050 d3 85 1e bc ad e7 08 bc 99 30 92 39 f2 ec d3 bc
       -0.009675461 -0.008356017 0.00027883498 -0.02586982
000060 f0 ba fb bc a6 fc a1 bc fa aa c0 3b 33 18 85 3b
       -0.030728787 -0.019773792 0.005879757 0.0040617227
000070 b3 f2 1c 3b 5a 07 7c bc d2 90 b9 38 8d fa 74 3c
       0.002394837 -0.015382612 8.848462e-05 0.014952314
000080 2f d8 11 3c e2 55 a2 3b dc b7 53 bc 69 97 27 3c
       0.00890164 0.0049540857 -0.012922253 0.01022897
000090 44 bb be bc 5f f9 86 bc 6f 1e f7 bc 02 3a 03 3c
       -0.023282655 -0.016476331 -0.030165879 0.008009436
0000a0 5b 51 a7 bc f1 b8 88 3c ce 3e c7 bc be c8 d1 bc
       -0.020424535 0.01668975 -0.02432194 -0.025608417
0000b0 8c 94 74 3b d5 e7 65 3a f7 e3 5b 3c d7 75 af bc
       0.0037319986 0.00087702024 0.01342105 -0.021418495
0000c0 a3 82 86 3a 7d f7 65 bc f5 47 73 bb a1 9d de bb
       0.0010262321 -0.014036057 -0.0037121747 -0.006793693
0000d0 6d 0c 7b bc ff e3 12 3c 6a 2b bb 3c 58 d5 93 3c
       -0.015322787 0.008965491 0.02284785 0.018046066
0000e0 98 5e d2 3b a4 fb 87 bc 99 b0 90 bc f0 ac db bc
       0.006419968 -0.016599484 -0.017662333 -0.026815861
0000f0 8e 3a 7d 3c 2e fd 4f 3c 20 74 84 3b 94 f9 e2 bc
       0.015455855 0.01269464 0.0040421635 -0.027706899
000100 4b 40 56 bb 27 12 32 3c 37 36 69 bc f9 3f 54 3c
       -0.003269213 0.010868586 -0.014234117 0.012954705
000110 78 aa 3f 3b b6 d2 ba 3c 71 27 ad 3c 61 f8 23 bb
       0.0029245894 0.022805553 0.021136971 -0.0025019872
000120 4a 9b a1 3a 89 7c 1f 3c 40 2a 17 3c 66 07 72 bb
       0.0012329605 0.009734281 0.009226382 -0.003693068
000130 f4 1c e0 bb d0 3c b7 3c 39 72 f9 bc 34 5e 26 3b
       -0.006839389 0.022367865 -0.030449973 0.002538574
000140 b6 a8 ea 3b d0 6a 2e bc 63 db fa bc 58 52 dc bb
       0.007161225 -0.010645583 -0.03062219 -0.0067236833
000150 1e 05 8d 3c ad 56 79 bc d9 b8 ca bc a6 29 c5 3b
       0.017214354 -0.015218419 -0.024746345 0.006016928
000160 80 e3 3a 3a 28 b2 88 3c 7c 76 c9 3c aa e5 cb 3c
       0.0007129237 0.016686514 0.02459263 0.024889786
000170 64 8c c8 bb 38 a8 1f 3c 72 c2 8c bc f6 d2 ad bc
       -0.0061202515 0.009744696 -0.017182563 -0.021218758
000180 e8 b5 38 3b a9 11 bb bc 86 6c 4f 3c 3b a7 cf bc
       0.0028184596 -0.02283557 0.012660151 -0.025348296
000190 38 f9 08 3c 7f ff 71 bb 5a e1 b3 bc 6f 14 58 3c
       0.0083602 -0.003692597 -0.021958042 0.0131884655
0001a0 55 f4 51 3c 1a f0 57 3c dc 76 67 bc e1 65 8e 3c
       0.012814601 0.013179803 -0.014127459 0.017382564
0001b0 3d e5 5e 3a 9a 6e 0b bc b2 23 8b 3c 52 13 ee bc
       0.0008502787 -0.008510256 0.016984794 -0.029061947
0001c0 11 0a 89 bc a0 b3 cd bb fb 64 97 3c fa 0e de bc
       -0.016728433 -0.0062775165 0.018480768 -0.02710675
0001d0 d7 b5 5c bc 53 b3 dc bb b0 98 56 3c 25 a6 e9 bc
       -0.013471088 -0.0067352443 0.013097927 -0.028521607
0001e0 18 1a 31 3b ea 15 a6 3b b8 03 de 3b 5f 6a 4b 3c
       0.002702361 0.0050685303 0.0067753457 0.012415498
0001f0 8a 4a 03 bc e4 b9 98 ba ec 6b 0b 3c 29 8b 95 3b
       -0.008013377 -0.0011652079 0.008509617 0.0045637083
000200 41 2f a5 bc 71 03 d3 3b 9f e3 a8 bb b6 34 bc 3b
       -0.020164134 0.006439619 -0.0051540877 0.0057435883
000210 a3 b8 a1 b9 c4 9f 43 3b bb ce 6c bc 60 fb cc bc
       -0.00030845878 0.0029849866 -0.014453585 -0.025022209
000220 f5 02 af 3b e0 fd 69 3c 27 57 bd bc 21 d8 9c bc
       0.0053409287 0.01428172 -0.023112847 -0.019146027
000230 71 4a 8d 3c cd f3 00 bc ee 86 f6 bb 50 74 ec bc
       0.01724741 -0.007870627 -0.007523409 -0.028864056
000240 b2 7c 10 bc 6e 6a db bc a1 ed 59 39 dc f3 86 3c
       -0.008818792 -0.026784148 0.00020783256 0.016473703
000250 61 aa e5 bb 40 65 97 3c 4c 21 1e bb 6a ff 87 3b
       -0.007008836 0.018480897 -0.0024128733 0.004150321
000260 e2 64 3a 3c 92 0e f5 b7 30 aa 27 bc 79 29 73 3c
       0.011376591 -2.921306e-05 -0.010233447 0.014841431
000270 c5 9b be bc 96 b5 4a 3b 87 d3 e6 ba ec b0 57 3c
       -0.023267636 0.0030930988 -0.0017610647 0.01316474
000280 32 82 97 bb 89 49 9b bc 74 f5 1c 3c db 48 8c 3c
       -0.004623675 -0.018955963 0.009580005 0.017124584
000290 89 dc 4c 3c 6d 81 28 bc 8b 5b 1d bc f9 a4 67 bb
       0.012503752 -0.010284764 -0.009604345 -0.0035346134
0002a0 a9 5e 76 3c fc 71 18 bc 2d f9 81 3c 01 7f 66 3b
       0.015037217 -0.00930452 0.015865887 0.0035170915
0002b0 1e f6 f7 ba a3 0e 97 bc f3 a5 93 bc 49 93 c9 bc
       -0.0018917953 -0.018439597 -0.018023467 -0.024606364
0002c0 ff 11 b4 bc 9a b5 48 3c 3a e4 2f 3c 88 b7 52 bc
       -0.021981237 0.012250328 0.010735566 -0.01286114
0002d0 6f df 94 3c d8 f6 2d 3c 58 7c 9c 3c 2b af 10 3a
       0.018172948 0.010617934 0.01910226 0.0005519266
0002e0 49 6d 68 3c 63 f0 95 3c ad f1 0e 3c fb 72 c9 bc
       0.014186212 0.018303102 0.008724612 -0.02459096
0002f0 b4 07 d5 bc cb 7d 0c bc 20 5d 0f 3c a8 3c 89 3c
       -0.02600465 -0.008574913 0.00875023 0.016752556
000300 52 7e 03 3c ad 6c 97 3b 22 06 bd 3b 84 c1 68 3b
       0.008025723 0.0046211095 0.0057685534 0.0035515735
000310 9f c2 8c bc 30 56 5a 3c 72 4c 76 bc cb 03 13 38
       -0.017182646 0.013326213 -0.015032874 3.5051064e-05
000320 18 69 08 3c f8 7f f1 bb 02 5a 9d 3c 2c 2c 82 bb
       0.008325838 -0.0073699914 0.019207958 -0.003972551
000330 36 94 3f 3c 89 a6 1e bc a1 e0 4e bb 90 35 cf 3b
       0.011693051 -0.00968326 -0.0031566995 0.006323524
000340 76 32 69 39 b3 50 37 bc e0 fc b1 bc 7c 10 e0 bc
       0.0002223941 -0.011188674 -0.021727026 -0.02735161
000350 77 b6 74 bc 40 e1 9a bb da 50 7c bc 19 00 b6 bc
       -0.014936081 -0.004726559 -0.015400136 -0.022216843
000360 64 18 e6 bc 76 17 f0 bc d4 f0 3d 3c a7 58 c0 3a
       -0.028087802 -0.029308062 0.011593062 0.0014674858
000370 c2 00 ff bc b8 dd bb 3b 5f 2a a9 bb 79 07 c6 39
       -0.031128291 0.005733218 -0.0051625217 0.0003777107
000380 98 9a 55 bc 4f 08 64 3b 15 2d 57 3c 5a e2 6b 3c
       -0.013037346 0.0034794991 0.013133307 0.014397228
000390 0e e8 b0 bc 5a 43 98 bc 79 4b 04 bc f0 7c 42 bc
       -0.021595027 -0.018586803 -0.008074635 -0.011870608
0003a0 8d de 71 bc c5 b6 a1 bc e0 5a 88 3b a5 c5 35 3c
       -0.014762533 -0.019740472 0.004161224 0.011094485
0003b0 94 a0 e6 bc 51 31 46 bc 00 c7 b3 3b 96 ea 8a bc
       -0.028152741 -0.012096719 0.005486369 -0.016957562
0003c0 64 3b 89 3c bc d0 74 bc 5f 43 3d bc 9f 9b 01 3c
       0.016751952 -0.014942344 -0.011551707 0.007910638
0003d0 70 74 aa 3b 9d 84 85 bc 1f f8 93 bc dc 13 40 3c
       0.0052018687 -0.016298587 -0.01806265 0.011723485
0003e0 63 c3 c8 bb fa 97 1d bc 72 1b 95 bc b8 32 be bc
       -0.0061268075 -0.009618754 -0.018201564 -0.023217544
0003f0 0f 75 94 3c d5 29 0c bb b3 4c 82 bc 89 74 0b 3b
       0.018122224 -0.0021387239 -0.015905714 0.0021279177

fc1.bias f4 [128]
000000 8b c0 bf bc 78 12 61 3c bb 74 f7 3c 7f f6 92 39
       -0.023407241 0.013737313 0.030207029 0.00028030944
000010 71 40 8d bc fe e1 75 3c fe fd c0 bc c3 1a fd 3c
       -0.017242642 0.015007494 -0.023558613 0.03089655
000020 ae 98 20 3d bd d8 d3 bb ed 6e a8 bc e1 5e 7d 3c
       0.039208107 -0.006465046 -0.020560706 0.015464515
000030 3f 56 81 3c c2 8d 26 3c 4d 24 1f 3c c8 ed d5 3b
       0.015788196 0.010165634 0.009713245 0.00652859
000040 cb d4 a0 3c dd 26 1e 3c d1 30 10 bd 38 33 d9 bc
       0.019632718 0.00965282 -0.035202805 -0.02651368
000050 4f 44 ec 3b 1e ab e0 ba bb d7 cd bb 25 7a b5 bc
       0.0072102915 -0.0017140841 -0.0062818206 -0.02215297
000060 b6 6a 0d 3d 55 ce 04 bc 3f 85 09 3a ec 00 85 bc
       0.034525596 -0.008105834 0.00052459905 -0.016235791
000070 5a a9 07 bd ff 19 4b 3d cc 78 77 bc 14 50 3c bc
       -0.03312049 0.04958534 -0.015104484 -0.0114937015
000080 a3 3d d7 39 1f 35 b2 3c e4 0d 97 bc ae 9d 75 3d
       0.00041053919 0.021753846 -0.01843924 0.05996483
000090 87 78 a7 3c 93 d9 b9 bc b8 df 50 bb c3 63 bb bc
       0.020443214 -0.022686755 -0.0031871628 -0.022874719
0000a0 c9 d5 c0 bb f6 80 80 3c c2 a6 04 3d 60 eb 22 bc
       -0.00588486 0.015686493 0.032385595 -0.009943813
0000b0 ca 49 48 bc 04 d5 5b bb b7 e2 8c 3c d8 e1 ae 3c
       -0.012224624 -0.0033543715 0.01719795 0.021347925
0000c0 da 64 9c 3a 26 a0 0c bc 3b 5b 02 bc a7 24 ee bc
       0.0011931912 -0.008583104 -0.007956321 -0.029070212
0000d0 3c 1d c9 bc f8 98 93 3c 23 93 85 bc 1c 8d bc 3b
       -0.024550073 0.018017277 -0.016305512 0.0057541262
0000e0 91 20 af 3c 2e a7 28 ba fa 8d 02 3d 95 90 a8 3b
       0.021377834 -0.0006433603 0.03187368 0.0051441886
0000f0 72 08 8f bc 78 b0 ca bc 54 45 29 3c 7a e8 fe 3b
       -0.017460082 -0.02474235 0.0103314705 0.007779178
000100 b8 1f 2d bc aa 37 8d bc 3f 9d aa bc 19 cf d3 3b
       -0.010566644 -0.017238457 -0.020826934 0.006463897
000110 21 f0 82 3c 4a 90 d6 bc 46 a5 2a 3c 91 ee 26 3c
       0.015983643 -0.02619185 0.010415381 0.010188715
000120 49 45 60 3c 5e 5d a8 bc 9d e8 0c 3b d9 07 d5 bc
       0.013688394 -0.020552333 0.0021500953 -0.026004719
000130 bc 73 e7 3c 1d 1f fb bb fe 32 f1 3c b2 41 07 3d
       0.028253429 -0.007663621 0.02944326 0.033021636
000140 2c 46 0e bd ef 68 04 3d fc da e6 3b 85 58 ea 3c
       -0.03473489 0.032326635 0.007045148 0.028606663
000150 03 31 7d 3c 3c 68 13 bc 81 ee 25 3c d8 e1 55 bc
       0.01545358 -0.008997019 0.010127665 -0.013054334
000160 3c 64 7e bb 2f 0c 63 bd 44 7f 4e 3d 49 0b 0f bd
       -0.0038817069 -0.05543154 0.05041434 -0.03492287
000170 d2 22 91 3c 56 db c6 bc a1 b1 71 3c da d0 83 bb
       0.017716799 -0.02427451 0.014751823 -0.0040227
000180 1b 93 98 bc ab b3 cf 3c b2 7b c6 3b de e4 f5 3c
       -0.018624833 0.025354227 0.006057226 0.030016359
000190 69 50 0e bd aa af c9 3b 25 b1 68 bc 95 8f 4b 3c
       -0.034744654 0.006154974 -0.014202391 0.012424369
0001a0 58 39 bb bb 1a 1c 68 3d f6 7b 84 3c 36 5a 72 3c
       -0.005713623 0.056667425 0.01617239 0.014792016
0001b0 9a cf 01 3d df 59 9b bd 12 eb e4 bc 37 c3 8e 3c
       0.031692125 -0.07585501 -0.027944122 0.01742707
0001c0 16 02 b5 3c 23 de 8b 3d 10 7a 16 bc 88 f4 32 bd
       0.022095721 0.068294786 -0.009184375 -0.043690234
0001d0 94 2e 74 bb 6d dc f0 bc ea 3e 13 3d 1d d2 c8 bc
       -0.0037259208 -0.029401982 0.03594867 -0.024514252
0001e0 49 0a 0f 3d 8b cb 1c bd 04 68 4b bd e8 01 ea bb
       0.034921918 -0.03828005 -0.049659744 -0.0071413405
0001f0 d8 0d 16 3d 54 a9 9e 3b b7 ec 92 3c 6e df 97 bc
       0.036634296 0.004841963 0.01793514 -0.018539157

fc2.weight f4 [10, 128]
000000 90 6e 8f bc 6c 49 7a 3b 7d a8 37 3c 8a b7 75 bd
       -0.017508775 0.0038190736 0.011209604 -0.05998949
000010 f8 4f 8a 3b cd 7d f4 bd 39 21 28 3c 5e 46 38 3d
       0.004220959 -0.11938057 0.010261827 0.044988982
000020 82 70 19 3e 0f 8f 79 bc a4 1c 28 bd c0 9c 10 bd
       0.14984325 -0.015231862 -0.04104294 -0.03530574
000030 eb b8 34 3d 36 40 54 3d f5 25 4b be aa 8e a8 3d
       0.044121664 0.05181905 -0.19838698 0.08230336
000040 cb 4d 91 3d ee d0 15 be 98 ec 41 3d af 4c e7 bc
       0.07094916 -0.14630482 0.047344774 -0.028234808
000050 6d a5 12 be e5 21 ed 3c 5f 45 fa 3d 37 11 6a 3d
       -0.14320917 0.028946826 0.12220263 0.057145324
000060 b2 c7 06 be e5 ce 78 3d 0a c0 18 3d 9c b9 a9 bc
       -0.13162115 0.060744185 0.037292518 -0.020718388
000070 28 79 16 3c 7f 14 f2 3a dc 68 34 3d a1 cf cc 3c
       0.009184159 0.0018469243 0.044045314 0.025001349
000080 b4 d8 a2 3d a3 c8 98 3d 30 da 07 be a4 ed 8b 3c
       0.07951489 0.074601434 -0.13266826 0.01708109
000090 ea 11 2b 3e 4d 7c 31 3d 22 d4 1f 3b fc 02 0e bd
       0.16706052 0.043331433 0.0024387916 -0.034670815
0000a0 c4 53 1a bd 11 b1 d0 bd 37 70 b8 3d e0 41 fb 3d
       -0.03767754 -0.10190023 0.09005778 0.12268424
0000b0 4a a4 06 3d 6c 58 39 bd 7c b1 90 3d 02 d2 04 be
       0.032871522 -0.04525034 0.070651025 -0.12970737
0000c0 cf 88 43 bd 9a 6c 57 bc a5 7a 2f 3d 28 18 93 bc
       -0.047737893 -0.013148451 0.042841572 -0.017955855
0000d0 88 dd 8d 3d e7 c6 4d 3d 91 2e 03 3c b8 28 87 3d
       0.06927019 0.050238516 0.008006708 0.06599563
0000e0 a5 e1 a4 3d c0 63 ce 3c c9 50 5d bd fb 0d 46 3d
       0.08050851 0.025194049 -0.05403212 0.048353177
0000f0 1c c7 c7 3c 1f 3d 77 bd 9a 6e 07 bd 87 c2 5d 3d
       0.024386935 -0.060361024 -0.033064462 0.054140594
000100 a7 3b 7a bc a8 ea 6b be aa 25 1c 3d ab 08 dd bd
       -0.015273011 -0.23038733 0.038121857 -0.10792669
000110 a4 fb 86 3c 19 ca 5b bd 3a 84 70 3d 8e 83 87 bd
       0.016477413 -0.053659532 0.05871985 -0.06616889
000120 31 d0 cc 3d 43 44 9a bd 31 53 e4 3d f1 97 40 be
       0.10000647 -0.07532551 0.1114868 -0.18807961
000130 1e c2 b3 3b 69 07 89 3d 02 91 14 3e da 35 85 3d
       0.005485787 0.066908665 0.14508441 0.06504412
000140 85 ff 8d 3c c0 69 d6 bc ff 4e 0b 3d f7 b9 a9 3d
       0.017333755 -0.026173472 0.034010883 0.08287423
000150 13 64 a3 3d 65 33 9e 3d b6 7b e6 3d 54 52 1b be
       0.07978072 0.077246465 0.11254065 -0.15168124
000160 3e 6e af bd d2 ed a6 bd 6d 0e 62 be fb f2 e8 bd
       -0.08565949 -0.081508294 -0.22075815 -0.1137447
000170 ac 94 26 3d 42 36 30 bb 07 22 42 bd 10 c4 7f bd
       0.04066913 -0.002688781 -0.047395732 -0.06244284
000180 99 96 f2 3c c3 6b e0 3c 30 fc 2d 3d 63 9a 3c bd
       0.029612826 0.027395135 0.042476833 -0.046045672
000190 70 41 55 3d a2 5a 49 be 89 4a 37 bd 3f 3f 60 3d
       0.05206436 -0.1966348 -0.044748817 0.054747816
0001a0 47 f3 90 3c fd a5 83 bb 14 f7 87 be fe bb 3b be
       0.017694129 -0.00401759 -0.26555693 -0.18333432
0001b0 5e 8c 1a be 07 86 9b bd 44 10 26 bb 02 68 60 bd
       -0.15092608 -0.07593923 -0.0025339285 -0.05478669
0001c0 66 ee 03 bd a1 a5 cf 3d ae 9b 54 3e 0e 49 ed bd
       -0.032209776 0.10139013 0.20762512 -0.115862
0001d0 bf 84 6a 3d 81 e5 99 3c bd c2 44 be ab 5e 8d 3d
       0.057255503 0.018786194 -0.19214912 0.06902822
0001e0 1a 7c a6 bd 55 7a aa bd 90 7c 44 be 03 de 14 bd
       -0.08129139 -0.08324114 -0.19188142 -0.03634454
0001f0 50 08 90 3b cd 3a 87 bd 1b 0a a0 3d 77 18 9e 3d
       0.004395522 -0.06603012 0.078144275 0.0771951
000200 62 37 22 3d e4 c9 cf 3c e1 cc d9 3d a4 c3 cd 3d
       0.0396036 0.025364824 0.10634781 0.10047081
000210 22 20 b9 39 3b 04 3a 3d 39 34 1b bd e8 87 2b be
       0.0003530989 0.04541419 -0.0378916 -0.16751063
000220 b9 d7 92 3d d4 a2 fb 3d 6d 8b 93 bd ac 86 44 3d
       0.07170052 0.122869164 -0.07204328 0.047979996
000230 14 80 6a 3d 9d 10 17 3e b7 4a 2f be 8e 0d 30 bd
       0.05725105 0.14752431 -0.17118345 -0.042981677
000240 76 c4 9b 3d 29 a7 37 3d 67 6d 50 3c 91 00 d6 3d
       0.07605831 0.04483715 0.012721396 0.10449327
000250 6b c4 d0 3d 3d ce 16 bc 12 95 45 3e df d6 65 bd
       0.10193714 -0.0092044445 0.19295147 -0.05611312
000260 18 86 93 3d 3f 5e a6 3d 16 f1 50 3d e4 6e 30 bd
       0.07203311 0.08123445 0.051011167 -0.043074504
000270 e5 54 01 bd 66 e1 6f bd 12 68 49 3d f8 80 8b 3d
       -0.031575102 -0.058564566 0.049171515 0.06811708
000280 5f 87 a1 bb 8c eb 73 be 91 0e de 3b ee 19 50 bb
       -0.0049294676 -0.23820323 0.006776639 -0.0031753737
000290 46 0a ea 3d ec 5a 2f 3c 19 44 35 3d 8b 93 b6 bc
       0.11427741 0.01070283 0.044254396 -0.02228715
0002a0 29 46 48 be d7 47 2f be 98 ac 05 be 92 3b 68 3d
       -0.19558014 -0.17117248 -0.1305412 0.056697436
0002b0 5b 2f 39 bd 89 67 f0 3b 6b 13 17 3d 23 08 a7 3b
       -0.045211177 0.007336561 0.036883753 0.0050974055
0002c0 01 e1 f7 3c 4d 5c 1f 3d 8a 96 97 bc c3 48 48 3c
       0.030258657 0.038906384 -0.0185044 0.012224379
0002d0 dd 99 73 3d 11 7a 99 bd 85 0d 6c be 72 90 9b bc
       0.059472907 -0.074939854 -0.23052032 -0.018989775
0002e0 9a 14 fc bd c2 45 4e bd 89 7b 06 be 05 f1 18 be
       -0.12308617 -0.050359495 -0.13133062 -0.14935692
0002f0 f0 d0 8d 3d 0c 27 b0 bb 93 30 57 bd af 45 ea bd
       0.06924617 -0.0053757485 -0.05253656 -0.11439072
000300 01 51 75 3c 16 e1 f5 3d 5c 95 00 bd 5a e1 98 3c
       0.014972926 0.12005822 -0.03139244 0.018662143
000310 ba dc 7d 3d 5b 65 ac bd 38 0f a2 bd 12 14 89 bd
       0.06197808 -0.084177695 -0.07913059 -0.06693281
000320 0a 0f 42 3d 13 8d 10 bc ae 8c 09 bd 9a b2 bc bd
       0.047377624 -0.008822697 -0.03358143 -0.09213753
000330 2a 19 4b be 78 bc ea 3c b5 1c a9 bd b3 86 22 be
       -0.19833818 0.028654322 -0.082574286 -0.15871696
000340 f9 df 5a bd 8c 93 17 3d 9d e1 c6 3c e8 f6 27 be
       -0.053436253 0.037005946 0.024277503 -0.16402781
000350 d5 1c da 3c 2f a7 a3 3d 43 af 97 bd 0c 4f 60 bd
       0.026625076 0.07990872 -0.074064754 -0.054762885
000360 89 04 64 3d 03 ae 27 3d 44 eb 19 3e 4b 58 a2 3d
       0.055668388 0.040937435 0.15031153 0.07926997
000370 17 bb c9 bd c7 57 4f 3d 10 53 c3 bc 6b 8d d1 3b
       -0.09850138 0.05062082 -0.023843318 0.006395032
000380 7c 25 cd 3d 74 56 de 3d f9 49 d6 bd 59 ef 5f 3d
       0.10016915 0.108563334 -0.10463328 0.05467162
000390 aa 4b 8d bd cc fa 6d 3d 38 b5 28 bd fe bb 88 bd
       -0.068991974 0.058100507 -0.04118845 -0.06676482
0003a0 30 d6 a2 3d 5b d4 77 3d 3c 39 23 3e 1a d6 83 bd
       0.07951009 0.060505252 0.15939802 -0.06437321
0003b0 ac 28 42 3d 0e 52 2b bd 61 15 b0 bd 60 d6 29 bd
       0.04740207 -0.0418263 -0.08597828 -0.04146421
0003c0 c4 a7 98 b8 39 c2 2b 3e 7d c1 bf 3d a4 e0 19 bd
       -7.2791736e-05 0.16773309 0.09363077 -0.03756775
0003d0 c1 37 35 3d 31 4d d4 bc 5f c7 df 3d 1a da bf bc
       0.044242624 -0.025915714 0.10926699 -0.023419429
0003e0 62 4c fc 3c a9 35 81 3c 6e f9 41 3d e5 96 6a 3d
       0.03079814 0.015772657 0.047357015 0.05727281
0003f0 30 fe 05 3e d0 a1 50 3d 84 84 4a bd df ab af 3b
       0.13085246 0.050935566 -0.049442783 0.005361065

fc2.bias f4 [10]
000000 fd 64 09 3d a5 c0 3e bd e7 d0 3e 3d 50 1d c9 bd
       0.033543576 -0.04657044 0.046585944 -0.09820044
000010 eb 91 3c bd 13 11 c0 bc 19 1f 23 bd e8 9a 22 3c
       -0.046037596 -0.023445642 -0.03982458 0.009924628
000020 0a f8 76 bd ce 3c 1e bd
       -0.060295142 -0.038632207
